neural_network/rnn/simple_sleep_model.pth (torch, 971234 bytes, 28 tensors)

conv1.weight f4 [32, 5, 3]
-0.0041322513 -0.08870967 -0.26116934 0.07584524 -0.2073758 0.3223267 0.8219306 -0.07267921
-0.5123792 0.22248156 -0.09327159 0.11871382 0.40036973 -0.07680069 -0.44758433 -0.1083172
0.044058062 -0.1779952 0.015615593 0.010829327 -0.020380465 -0.20495622 0.15269743 0.25519457
-0.057870585 0.014038214 0.1704265 0.019608097 -0.50180525 0.5495047 -0.068305396 -0.10170519
-0.22593041 0.3109925 -0.3694498 -0.3312476 -0.7405574 0.7917099 0.6945561 0.034134362
0.05135306 0.13566159 0.040290833 0.07191411 -0.053336576 -0.03709572 0.31674823 0.0137572875
0.10958092 -0.26932126 -0.34916002 -1.0135887 -0.58005476 -0.89817595 0.24464539 0.34073517
0.08864483 -0.19257648 -0.059123527 -0.112835765 0.50862867 0.1348263 0.058576405 -0.33029878
-0.11405246 -0.12059633 -0.44130734 -0.042943917 0.04073007 -0.50199425 -0.3460836 -0.2482759
-0.14000505 -0.12184507 -0.43319172 -0.010943982 0.28357643 0.23837903 0.23595046 0.5520058
0.40568826 0.439475 0.07885185 0.14737721 -0.07854186 0.24384673 0.30740035 -0.28749824
-0.3546252 -0.224104 -0.123785265 0.17656022 0.054842122 -0.047458097 0.10874103 0.026248604
-0.9364689 0.9217174 0.31770918 0.75840616 0.029319957 0.24605525 0.0696575 -0.12727733
-0.12311333 -0.32476583 -0.41859284 -0.3844674 0.19431818 -0.09663028 -0.11814389 0.10890778
0.06594916 -0.099602155 0.19687366 0.7520127 -0.12504333 0.18273257 0.15007825 -0.28178602
-0.09891547 0.14494804 0.14969905 -0.101935446 -0.070648156 -0.09958327 0.3620704 0.28889942
0.31643945 0.13260758 -0.33860263 0.2689602 -0.23182799 0.25770694 -0.01589383 -0.091668636
0.32859087 0.28338426 -0.36387637 0.2269323 0.31446433 -0.22171277 1.1661298 -0.41358212
-0.28532645 -0.19994573 -0.25407153 -0.3486923 0.05645229 0.10866497 0.03872659 0.3490746
0.10871429 -0.24558794 0.17555706 -0.29949462 0.39317587 -0.33456466 -0.58175457 0.5899334
0.3345597 0.7569872 0.07722921 -0.12349154 -0.017555306 0.11366197 -0.05322511 0.18152589
-0.21412878 -0.3800401 -0.34806404 0.36504748 0.24302265 0.13953657 0.47143602 0.35585096
0.54903644 -0.12105342 -0.08119192 0.15098183 -0.14780699 -0.21130441 -0.36826205 0.25719708
0.39609027 0.31076226 -0.41241 0.5301576 -0.16689289 -0.4628293 0.28158757 -0.30055174
-0.0015911441 -0.14538434 0.049521875 -0.033702593 0.20327938 0.08279944 0.044447865 -0.13261828
0.03978129 0.03574886 0.35237423 -0.62838924 -0.056354508 0.09044031 1.099166 -0.09949669
-0.032865208 0.10211124 0.22300245 0.3649619 0.0039235833 0.14297709 0.22289102 -0.25176334
0.3313006 0.77024156 -0.6828055 -0.041299753 0.5221441 -0.0063254014 -0.18072522 -0.05359969
0.35614088 0.17600547 0.18355522 -0.31017333 0.17895217 0.020627491 -0.08271109 0.6060284
0.41148296 -0.48410594 -0.8997081 0.018481469 -0.40917772 -0.17465432 -0.04516106 0.15580818
0.41558594 0.3969306 -0.11248912 -0.32695445 0.0060759448 0.46582118 -0.23220037 -0.1197632
-0.011322157 -0.4476798 -0.33116803 -0.77399486 -0.06215374 -0.23908535 -0.15194882 -0.013174249
00000000: d667 87bb 6aad b5bd fdb7 85be c054 9b3d
00000010: 525a 54be 0108 a53e 0b6a 523f d6d8 94bd
00000020: 492b 03bf 35d2 633e 2d05 bfbd 3b20 f33d
00000030: 43fd cc3e ae49 9dbd c629 e5be 68d5 ddbd
00000040: 3a76 343d 6044 36be 8bd8 7f3c 7d6d 313c
00000050: eff4 a6bc 0be0 51be b75c 1c3e dda8 823e
00000060: b509 6dbd 8a00 663c 4984 2e3e 29a1 a03c
00000070: 4f76 00bf 57ac 0c3f b3e3 8bbd d04a d0bd
00000080: 4d5a 67be 693a 9f3e 8628 bdbe 4999 a9be
00000090: 2b95 3dbf 80ad 4a3f 6ece 313f 79d0 0b3d
000000a0: 9657 523d dfea 0a3e 0008 253d b447 933d
000000b0: 7477 5abd aff1 17bd d32c a23e 3f66 613c
000000c0: f66b e03d 7ae4 89be 1ac5 b2be 46bd 81bf
000000d0: 787e 14bf dcee 65bf 5284 7a3e d774 ae3e
000000e0: 6c8b b53d c532 45be 832b 72bd 7016 e7bd
000000f0: 7d35 023f e80f 0a3e d0ed 6f3d ec1c a9be
00000100: 5694 e9bd 35fb f6bd 09f3 e1be f6e5 2fbd
00000110: 93d4 263d b282 00bf df31 b1be 0a3c 7ebe
00000120: 7c5d 0fbe e889 f9bd 4ecb ddbe 634e 33bc
00000130: ee30 913e a219 743e ff9c 713e 4150 0d3f
00000140: 5fb6 cf3e de02 e13e 147d a13d 0dea 163e
00000150: 8eda a0bd f5b2 793e 9463 9d3e f832 93be
00000160: 6f91 b5be 857b 65be 2183 fdbd 34cc 343e
00000170: 22a2 603d 6c63 42bd 9eb3 de3d 5007 d73c
00000180: 6dbc 6fbf acf5 6b3f c7aa a23e e826 423f
00000190: 6830 f03c e8f5 7b3e 97a8 8e3d fd54 02be
000001a0: d722 fcbd b547 a6be cd51 d6be e9d8 c4be
000001b0: 58fb 463e 19e6 c5bd 6cf5 f1bd 0b0b df3d
000001c0: 5a10 873d 37fc cbbd 4099 493e e883 403f
000001d0: 5c0b 00be 3f1e 3b3e 1dae 193e 4246 90be
000001e0: 3294 cabd 426d 143e b54a 193e 88c3 d0bd
000001f0: fbaf 90bd 50f2 cbbd 4b61 b93e a0ea 933e
00000200: 5a04 a23e 48ca 073e 535d adbe 27b5 893e
00000210: 5164 6dbe 2af2 833e c733 82bc c4bc bbbd
00000220: 103d a83e be17 913e 014e babe f160 683e
00000230: 7801 a13e ac08 63be be43 953f 09c1 d3be
00000240: 4f16 92be 93be 4cbe aa15 82be cc87 b2be
00000250: 843a 673d bd8b de3d c69f 1e3d e8b9 b23e
00000260: 99a5 de3d 687b 7bbe 3bc5 333e 5c57 99be
00000270: 594e c93e 0f4c abbe deed 14bf e005 173f
00000280: 694b ab3e eac9 413f 592a 9e3d 22e9 fcbd
00000290: 25d0 8fbc 9bc7 e83d 9302 5abd ece1 393e
000002a0: 9344 5bbe 9e94 c2be 7335 b2be 81e7 ba3e
000002b0: eeda 783e ade2 0e3e 1060 f13e 1932 b63e
000002c0: a78d 0c3f dbea f7bd f347 a6bd fb9a 1a3e
000002d0: b75a 17be 2f60 58be d88c bcbe 56af 833e
000002e0: 58cc ca3e 3b1c 9f3e 6727 d3be 69b8 073f
000002f0: f8e5 2abe f6f7 ecbe 3f2c 903e ebe1 99be
00000300: f08d d0ba a2df 14be 73d7 4a3d bb0b 0abd
00000310: 7828 503e c192 a93d f70e 363d 16cd 07be
00000320: b5f1 223d 666d 123d 656a b43e 1ede 20bf
00000330: fcd3 66bd c538 b93d 79b1 8c3f ecc4 cbbd
00000340: ab9d 06bd b31f d13d c15a 643e 49dc ba3e
00000350: 6791 803b 9668 123e 8b3d 643e 20e7 80be
00000360: 3ba0 a93e 8d2e 453f 57cc 2ebf ee29 29bd
00000370: 3cab 053f 5045 cfbb 0810 39be 598b 5bbd
00000380: 1958 b63e c73a 343e e6f5 3b3e 0acf 9ebe
00000390: 3d3f 373e fcfa a83c 6f64 a9bd ad24 1b3f
000003a0: e5ad d23e bcdc f7be 4553 66bf 7366 973c
000003b0: be7f d1be 95d8 32be cefa 38bd 2e8c 1f3e
000003c0: aec7 d43e 7d3a cb3e b260 e6bd 9366 a7be
000003d0: b818 c73b 1d80 ee3e efc5 6dbe 6946 f5bd
000003e0: 9280 39bc 4936 e5be db8e a9be 8724 46bf
000003f0: ec94 7ebd cad2 74be 7998 1bbe ced8 57bc

conv1.bias f4 [32]
-0.0902935 -0.10658004 -0.13542837 -0.3222835 -0.33461866 -0.44552934 -0.036822382 -0.37466618
0.011960016 0.14248386 -0.15676567 -0.18242185 0.13979153 0.057610955 0.27814472 -0.37371108
-0.42120874 -0.13268158 0.061842743 0.08218374 0.18996571 -0.4036157 -0.014073555 -0.0740227
0.27379695 -0.6735759 -0.15049002 0.12967443 -0.1546825 0.14011955 -0.04029194 -0.3061233
00000000: cceb b8bd a346 dabd bcad 0abe 5802 a5be
00000010: 2353 abbe 6c1c e4be 11d3 16bd 3fd4 bfbe
00000020: f1f3 433c 4ae7 113e 2e87 20be cbcc 3abe
00000030: 8325 0f3e 77f9 6b3d fc68 8e3e 0f57 bfbe
00000040: aca8 d7be aedd 07be d14e 7d3d f34f a83d
00000050: 5f86 423e b8a6 cebe c594 66bc 3799 97bd
00000060: 1d2f 8c3e 786f 2cbf 0e1a 1abe 60c9 043e
00000070: 1765 1ebe 807b 0f3e 2909 25bd 31bc 9cbe

conv2.weight f4 [64, 32, 3]
-0.111834556 0.008066066 0.18462868 0.15672943 -0.009011942 0.015195156 0.17901753 -0.35292086
-0.24956016 0.035883106 -0.07605059 -0.045391463 0.096561104 -0.032444898 -0.11396225 -0.06979107
-0.101654455 0.16435702 0.39491174 -0.08609394 -0.08954744 -0.28757676 0.11953423 0.044457488
-0.1182526 -0.07213114 -0.028191583 -0.271458 0.05848571 -0.20865957 0.032023817 -0.11540315
-0.14494704 -0.40966734 -0.092199154 -0.03478388 0.3983128 0.14053738 0.05438475 -0.5065557
0.02682427 0.10475501 -0.47947225 0.019228477 0.17291254 -0.0013555931 0.08724227 0.012170189
0.12031182 0.053185932 -0.20293352 0.20458758 0.011693212 -0.19741386 -0.054358047 -0.16991928
-0.06413984 -0.5885187 0.2594766 0.3403485 0.06891953 -0.10725838 0.18146779 -0.25795826
0.28445756 0.16170628 0.11357482 0.031117449 0.025591835 0.08674991 -0.11396919 -0.17762119
0.31735665 -0.48607692 -0.16166219 -0.21777788 -0.1343828 -0.19051525 0.021348914 -0.42821324
-0.042911664 -0.28522858 -0.19875695 -0.03617004 -0.055194583 -0.029037887 -0.15628803 0.21328127
-0.5795747 -0.020644689 -0.1847308 -0.24199498 0.38131502 -0.44944686 0.008674538 0.3065263
-0.008200257 -0.26420733 -0.11616735 0.11862355 -0.047734313 -0.146787 -0.00069498876 0.0860297
-0.83952516 0.18031718 0.051757395 0.09717275 0.12755223 0.19130507 0.034015294 0.17978044
-0.11303752 -0.10463142 -0.21201137 0.14087398 -0.58663195 0.0057544066 -0.0732617 -0.54504913
0.10000339 -0.07651177 -0.11411719 -0.25830296 0.44513968 0.45346543 0.1118774 0.13944519
-0.704043 0.33940944 0.14016673 -0.120640226 -0.12237565 0.035902187 -0.21009326 -0.3501378
0.18900296 -1.1666898 -0.0839612 0.16824223 -0.013749409 0.23494059 0.4476053 -0.42507657
0.03640494 -0.44619954 -0.03313998 0.1350799 -0.4476595 -0.41703913 0.14557435 0.2057095
0.078389846 0.13757646 0.1610071 -0.28793108 -0.5052551 0.12935327 -0.32072142 0.0719785
-0.22583051 0.17792487 0.16164494 -0.08398047 -0.42809048 -0.14696635 0.002606519 -0.29369915
-0.18627419 0.20615043 -0.9920133 0.41738534 -0.11990788 -0.04454442 -0.044188578 0.08107542
-0.24203439 0.13376592 0.011439372 0.3529387 0.07375003 -0.0076318174 0.03873947 -0.018517759
-0.27568844 0.18275397 0.054225795 0.14178124 -0.4869375 -0.110376924 -0.11584851 -0.5195963
0.07061224 0.15859468 0.004886185 0.15740855 0.062991105 0.045130674 0.26243913 -0.022353364
-0.06325844 0.082984865 0.018665032 0.0747744 0.11153884 0.0829115 0.08825574 0.06227949
0.026744412 0.12127116 -0.2765474 -0.2433675 0.1779922 0.1337668 0.27680808 0.00529285
-0.17159851 -0.04207062 0.123535275 -0.4389245 0.20365214 0.4256889 -0.24010791 -0.055958495
-0.12094253 -0.10197939 -0.079600774 0.045302846 0.0497508 0.11479167 -0.05838904 -0.6432588
0.0018199937 -0.015264045 -0.9504028 0.1967158 0.09988376 -0.15481766 -0.19769284 -0.1194274
0.17629598 0.005113092 -0.1808862 -0.34068322 -0.23929982 0.19335534 -0.015071241 -0.14647609
-0.18136622 -0.09012514 -0.13407947 -0.028508762 0.0731004 -0.16618602 0.0982748 -0.015611332
00000000: 8409 e5bd 8827 043c 4d0f 3d3e ae7d 203e
00000010: d3a6 13bc 1bf5 783c 5f50 373e 0bb2 b4be
00000020: b38c 7fbe 2afa 123d 69c0 9bbd 66ec 39bd
00000030: d4c1 c53d f1e4 04bd 0a65 e9bd 9fee 8ebd
00000040: 3630 d0bd 354d 283e df31 ca3e 0552 b0bd
00000050: a664 b7bd 433d 93be 5dce f43d 0e19 363d
00000060: 6b2e f2bd 7eb9 93bd 09f2 e6bc 8bfc 8abe
00000070: b68e 6f3d dbaa 55be 682b 033d 7d58 ecbd
00000080: ff6c 14be ebbf d1be e9d2 bcbd 8b79 0ebd
00000090: a8ef cb3e 08e9 0f3e 8bc2 5e3d a2ad 01bf
000000a0: 92be db3c cb89 d63d 637d f5be 0a85 9d3c
000000b0: fc0f 313e 28ae b1ba 13ac b23d 7965 473c
000000c0: 0b66 f63d 7ed9 593d cecd 4fbe 687f 513e
000000d0: e394 3f3c dc26 4abe 8ba6 5ebd 52ff 2dbe
000000e0: c05b 83bd 29a9 16bf 1eda 843e 2942 ae3e
000000f0: af25 8d3d 48aa dbbd b1d2 393e 1b13 84be
00000100: 6ca4 913e 5596 253e ea99 e83d 05ea fe3c
00000110: f8a5 d13c f0a9 b13d ae68 e9bd 54e2 35be
00000120: 927c a23e 13df f8be c68a 25be 2a01 5fbe
00000130: a59b 09be 6e16 43be ebe3 ae3c c43e dbbe
00000140: 24c4 2fbd 7b09 92be f186 4bbe 0927 14bd
00000150: b713 62bd dde0 edbc f809 20be 6866 5a3e
00000160: 025f 14bf 0d1f a9bc 122a 3dbe 88cd 77be
00000170: b93b c33e e61d e6be a61f 0e3c 04f1 9c3e
00000180: 5f5a 06bc 2f46 87be 26e9 edbd e7f0 f23d
00000190: 0e85 43bd 554f 16be e82f 36ba 5730 b03d
000001a0: 1feb 56bf 11a5 383e 90ff 533d 8202 c73d
000001b0: 0d9d 023e 7ae5 433e 9f53 0b3d 5d18 383e
000001c0: 3780 e7bd ff48 d6bd 8219 59be 4541 103e
000001d0: 832d 16bf 768f bc3b 3b0a 96bd 5788 0bbf
000001e0: 94ce cc3d 34b2 9cbd 46b6 e9bd 4940 84be
000001f0: 59e9 e33e 9f2c e83e fa1f e53d b8ca 0e3e
00000200: 293c 34bf 13c7 ad3e de87 0f3e 3912 f7bd
00000210: 16a0 fabd 2c0e 133d b022 57be 4345 b3be
00000220: fe89 413e 1756 95bf daf3 abbd b147 2c3e
00000230: 3345 61bc 4494 703e 862c e53e a3a3 d9be
00000240: 591d 153d 4474 e4be cabd 07bd 6352 0a3e
00000250: a033 e5be 2786 d5be 7111 153e 83a5 523e
00000260: db8a a03d d8e0 0c3e 0cdf 243e b46b 93be
00000270: 6658 01bf 2f75 043e 9935 a4be 7769 933d
00000280: 1d40 67be f031 363e 4086 253e f4fd abbd
00000290: ad2e dbbe 597e 16be 22d2 2a3b bc5f 96be
000002a0: a9be 3ebe 1919 533e 95f4 7dbf 88b3 d53e
000002b0: 4392 f5bd 3674 36bd 15ff 34bd df0a a63d
000002c0: ddd7 77be eff9 083e 346c 3b3c 62b4 b43e
000002d0: 410a 973d 5314 fabb 47ad 1e3d 8eb2 97bc
000002e0: 0927 8dbe db23 3b3e de1b 5e3d 1a2f 113e
000002f0: df4f f9be 4c0d e2bd fc41 edbd 4304 05bf
00000300: 269d 903d a566 223e 4a1c a03b b52f 213e
00000310: 7b01 813d f1da 383d 6c5e 863e 671e b7bc
00000320: a48d 81bd f8f3 a93d 69e7 983c 5223 993d
00000330: 7a6e e43d 81cd a93d 6dbf b43d c718 7f3d
00000340: 1917 db3c 045d f83d 9f97 8dbe 5435 79be
00000350: 9643 363e 2afa 083e cab9 8d3e a56f ad3b
00000360: 85b7 2fbe 3e52 2cbd 1000 fd3d b6ba e0be
00000370: 308a 503e e5f3 d93e d9de 75be bc34 65bd
00000380: b8b0 f7bd 92da d0bd bb05 a3bd 7a8f 393d
00000390: 7fc7 4b3d e517 eb3d 5929 6fbd 9cac 24bf
000003a0: db8c ee3a 0c16 7abc 994d 73bf de6f 493e
000003b0: db8f cc3d 8588 1ebe fe6f 4abe 5a96 f4bd
000003c0: ef86 343e b98b a73b 3b3a 39be 086e aebe
000003d0: 030b 75be f1fe 453e 5eed 76bc d4fd 15be
000003e0: 11b8 39be 8893 b8bd 214c 09be 358b e9bc
000003f0: aab5 953d ab2c 2abe 4c44 c93d acc6 7fbc

conv2.bias f4 [64]
-0.011944224 -0.0427783 -0.12095125 -0.046445116 -7.21858e-08 -0.04085033 -0.006198723 -0.00021847595
-0.043662205 -0.19587037 -5.227419e-07 0.08768795 -0.045683473 0.109035954 -0.008554462 0.0012512452
-0.036337774 -0.013932919 -0.09112779 -0.13358852 0.0032010805 -0.17715073 -0.026976272 -0.1422288
-0.055815 -0.2128972 -0.14041854 0.12667638 -0.018136892 -0.006691011 -0.14141804 -0.19159451
-0.34059843 -0.06791212 -0.1416792 -0.24132048 -0.072870485 0.011206063 0.20149022 0.0409714
-0.24094273 -0.2675419 0.064838104 0.005690969 -0.085532755 0.03567479 0.073809855 0.017161923
-0.24130102 -0.1811868 -0.00084995193 -0.06998636 -0.075054 0.020063536 -0.15933529 0.061598048
-0.08500133 -0.25802225 -0.03212172 -0.20116393 -5.2260575e-32 0.13735853 -0.099747434 -0.3132289
00000000: b5b1 43bc 4c38 2fbd 4ab5 f7bd 3c3d 3ebd
00000010: 9004 9bb3 ad52 27bd a81e cbbb b116 65b9
00000020: 24d7 32bd 3e92 48be 8d52 0cb5 bd95 b33d
00000030: 981e 3bbd 3e4e df3d 0428 0cbc d200 a43a
00000040: ebd6 14bd e646 64bc 35a1 babd 6ecb 08be
00000050: 38c9 513b 0067 35be 58fd dcbc 6da4 11be
00000060: 459e 64bd b901 5abe e1c9 0fbe 74b7 013e
00000070: d293 94bc 4540 dbbb e4cf 10be 5a31 44be
00000080: eb62 aebe 8215 8bbd 5a14 11be b71c 77be
00000090: 1f3d 95bd a399 373c 7453 4e3e a0d1 273d
000000a0: b1b9 76be 40fb 88be d7c9 843d 4f7b ba3b
000000b0: cc2b afbd bb1f 123d 9f29 973d 2997 8c3c
000000c0: 9d17 77be 0889 39be 4fcf 5eba 0255 8fbd
000000d0: e9b5 99bd 495c a43c ca28 23be 3c4e 7c3d
000000e0: 2d15 aebd 7e1b 84be 1192 03bd ebfd 4dbe
000000f0: 1cad 878b b7a7 0c3e 6248 ccbd 8a5f a0be

conv3.weight f4 [128, 64, 3]
0.410085 0.26952294 -0.1298682 0.16384971 -0.6005242 0.21044664 0.14247559 -0.5091734
0.022440843 -0.041872248 0.1912535 0.09875839 1.247732e-39 4.40589e-40 -8.05408e-40 0.011138327
0.027746474 0.37764004 0.07223158 0.12831993 0.12572353 4.0447e-41 5.73309e-39 2.623832e-39
0.17559387 -0.1968822 -0.015246937 -0.084353454 -0.09731242 0.16991061 3.668863e-39 3.859501e-39
4.182198e-39 -0.16832444 -0.031921834 0.10069942 -0.15291151 -0.07344202 0.097840816 0.25873837
-0.3789634 -0.09876484 -0.15780298 0.13914135 0.045019362 0.103475235 -0.030489396 -0.036896035
-0.32162517 0.10267965 -0.07035118 -0.050373837 0.28641564 -0.19107556 0.15599689 0.24099995
0.2705371 0.4356138 -0.026626278 -0.3712239 -0.032556478 0.11905198 0.10132159 0.14153653
0.082179956 0.17246784 0.16262542 -0.06434917 -0.20111015 -0.25279576 -0.07684168 0.08678194
-0.080376446 -0.041649703 0.2758437 0.106305555 0.22656634 0.181737 -0.21964876 -0.051586397
-0.072804585 0.059141003 -0.122127384 -0.5442727 4.518843e-05 3.5798672e-05 6.6930676e-05 0.3953544
-0.15399729 0.1598169 -0.26223627 -0.21958162 0.18704028 0.08540071 -0.028691791 -0.36129808
-0.11008661 0.0089292135 -0.07843205 -0.32460725 -0.004286465 -0.15979889 0.0007746783 0.16699202
0.05997085 -0.048541546 -0.07537337 0.23985478 0.05203955 -0.009149097 -0.096388526 -0.07045841
0.097385995 0.09804729 -0.087158106 0.07675406 -0.0017156808 -0.17018706 -0.336472 0.020056125
0.14203396 -0.0189588 -0.0926046 -0.008843621 -0.3642422 0.048304483 -0.49314034 -0.116597384
-0.118114404 -0.16249648 -0.020305462 0.21968095 -0.18907185 -0.25861135 -0.025964098 -0.29411244
0.066728786 -0.2427986 0.024427913 -0.0821842 -0.044405904 -0.05057474 0.4513686 0.04357939
-0.03876448 -0.15240596 0.14747912 0.35217255 0.13073455 -0.5148061 -2.687725e-39 -1.907644e-39
-1.05889e-39 -0.08018329 -0.4974447 0.06592327 -0.00063916226 0.11328292 0.04598446 -0.053536955
0.16464517 -0.34731156 0.22741918 0.07462217 0.008191553 0.013343377 0.21197553 0.09333109
-0.06261538 0.1830414 0.1451146 0.2570048 -0.044938743 -0.24481645 -0.047012735 -0.051998977
-0.053179245 0.028730828 -0.109089285 -0.25546634 3.21094e-39 3.277758e-39 3.260931e-39 0.21465743
-0.3160189 -0.48932958 -0.011310093 0.23025964 0.15504724 0.038478144 0.0501092 -0.20498669
-0.22458409 0.007835574 0.10093073 0.1348187 -0.13880582 -0.010963668 -0.21047018 -0.050283175
-0.380233 -0.17087221 0.20054692 0.20720899 2.026844e-39 2.572403e-39 2.48892e-39 0.14251818
0.114844605 -0.02188051 0.21073726 0.22518387 -0.0071933675 3.551941e-39 -1.5359e-40 4.491337e-39
-0.037159972 0.11994363 0.11391902 0.16906501 0.14569134 0.23042439 3.941752e-39 4.240601e-39
4.002078e-39 0.041804433 0.008580347 0.05518832 0.015109742 -0.011021563 -0.09950723 -0.02212516
-0.14132358 -0.35801342 -0.20958474 -0.07029265 0.006970405 0.014421487 -0.21797168 0.5412584
-0.15637662 -0.063675456 0.16547559 -0.17508735 -0.2005571 0.13534053 0.18061453 0.12299956
0.025530178 0.22240157 0.18801433 0.5020633 0.033224948 0.062079392 -0.033394456 0.10163418
00000000: a9f6 d13e e9fe 893e 2bfc 04be 38c8 273e
00000010: f4bb 19bf 537f 573e 1fe5 113e 3059 02bf
00000020: dcd5 b73c 3c82 2bbd f5d7 433e d741 ca3d
00000030: 2b96 0d00 2fcc 0400 26c5 0880 887d 363c
00000040: 934c e33c 095a c13e 27ee 933d 4d66 033e
00000050: abbd 003e c070 0000 866d 3e00 2d92 1c00
00000060: e1ce 333e 7d9b 49be 4ace 79bc 81c1 acbd
00000070: bc4b c7bd 0cfd 2d3e 4cf3 2700 b806 2a00
00000080: 448a 2d00 3e5d 2cbe 78c0 02bd 7f3b ce3d
00000090: d694 1cbe c568 96bd c460 c83d 5b79 843e
000000a0: 7e07 c2be 3845 cabd 1b97 21be 127b 0e3e
000000b0: 3966 383d d3ea d33d e6c4 f9bc 4c20 17bd
000000c0: 0eac a4be b549 d23d 4814 90bd cc54 4ebd
000000d0: 12a5 923e 50a9 43be a6bd 1f3e b1c8 763e
000000e0: d783 8a3e c608 df3e 5a1f dabc 0f11 bebe
000000f0: f159 05bd 86d1 f33d b281 cf3d f4ee 103e
00000100: f74d a83d 699b 303e 4787 263e 7fc9 83bd
00000110: d2ef 4dbe 726e 81be 2c5f 9dbd bbba b13d
00000120: 689c a4bd e198 2abd 633b 8d3e bab6 d93d
00000130: 0201 683e 4419 3a3e 9beb 60be 424c 53bd
00000140: 921a 95bd d63d 723d ec1d fabd 7555 0bbf
00000150: b588 3d38 8826 1638 225d 8c38 e46b ca3e
00000160: 77b1 1dbe 0ba7 233e d543 86be 01da 60be
00000170: 7d87 3f3e 91e6 ae3d 0c0b ebbc 10fc b8be
00000180: 1775 e1bd d64b 123c fca0 a0bd ec32 a6be
00000190: 7975 8cbb 52a2 23be c813 4b3a f5ff 2a3e
000001a0: fea3 753d 80d3 46bd 5a5d 9abd 7e9c 753e
000001b0: 6c27 553d 18e6 15bc 5967 c5bd 804c 90bd
000001c0: 4f72 c73d 05cd c83d f37f b2bd 3c31 9d3d
000001d0: b2e0 e0ba 8445 2ebe 0f46 acbe be4c a43c
000001e0: 5a71 113e 7c4f 9bbc 7ba7 bdbd d6e4 10bc
000001f0: f47d babe ecda 453d e47c fcbe 9cca eebd
00000200: f7e5 f1bd 7a65 26be a457 a6bc 0bf4 603e
00000210: 0d9c 41be b568 84be a9b2 d4bc e895 96be
00000220: 1aa9 883d 32a0 78be 0c1d c83c 3150 a8bd
00000230: f7e2 35bd 7527 4fbd c919 e73e 4d80 323d
00000240: 81c7 1ebd 4f10 1cbe c404 173e f64f b43e
00000250: 47df 053e 55ca 03bf 4944 1d80 bcc5 1480
00000260: c187 0b80 2337 a4bd 12b1 febe c802 873d
00000270: 748d 27ba e000 e83d 335a 3c3d 9149 5bbd
00000280: be98 283e d2d2 b1be 93e0 683e 82d3 983d
00000290: dd35 063c 2e9e 5a3c 1d10 593e 5f24 bf3d
000002a0: 7e3c 80bd 346f 3b3e ec98 143e 2296 833e
000002b0: b011 38bd 2ab1 7abe 6d90 40bd e1fc 54bd
000002c0: 7bd2 59bd ea5c eb3c 346a dfbd 7ccc 82be
000002d0: cbf6 2200 0eb1 2300 2682 2300 28cf 5b3e
000002e0: 3bcd a1be 6889 fabe f84d 39bc 2fc9 6b3e
000002f0: b4c4 1e3e 429b 1d3d 4e3f 4d3d 08e8 51be
00000300: 5ff9 65be c860 003c c5b4 ce3d ea0d 0a3e
00000310: 1d23 0ebe f5a0 33bc 7f85 57be bbf5 4dbd
00000320: e6ad c2be 20f9 2ebe 2c5c 4d3e 982e 543e
00000330: 0412 1600 d002 1c00 191a 1b00 49f0 113e
00000340: a633 eb3d c13e b3bc 82cb 573e 9a96 663e
00000350: 57b6 ebbb 5ead 2600 25ac 0180 05e8 3000
00000360: 0e35 18bd 02a5 f53d 604e e93d 611f 2d3e
00000370: 1c30 153e 5ff4 6b3e 00ec 2a00 122d 2e00
00000380: 2a94 2b00 203b 2b3d 9594 0c3c 260d 623d
00000390: da8e 773c c993 34bc 72ca cbbd d33f b5bc
000003a0: 21b7 10be 894d b7be 629d 56be 98f5 8fbd
000003b0: ff67 e43b 1a48 6c3c f833 5fbe e98f 0a3f
000003c0: 3121 20be 4768 82bd 6f72 293e 194a 33be
000003d0: d75e 4dbe b596 0a3e 04f3 383e 31e7 fb3d
000003e0: aa24 d13c 3dbd 633e d486 403e 3887 003f
000003f0: e216 083d f646 7e3d a0c8 08bd 9525 d03d

conv3.bias f4 [128]
-0.099746644 -0.027011918 -0.041610938 -0.034588195 -0.00078948 -0.00148223 -0.01836291 -0.030449161
0.027362444 -0.04403892 -0.02652382 -0.023642821 -0.13393612 -7.626606e-08 0.015969684 -7.583914e-05
-0.07744123 -6.8955015e-16 -0.009842927 -0.061871044 -0.07106335 -0.06272684 -0.017512474 -2.5463789e-05
-0.028152855 -0.16181512 0.060060564 -0.016004238 -0.037866276 -0.11262672 -0.035589885 -0.099902704
-0.08706233 -0.023258671 -0.02082251 -0.030577227 -0.07102167 -8.3937265e-31 -0.12010511 -1.0572829e-05
-0.0020497188 -0.09056223 -9.111711e-05 -0.24917614 -0.30492285 0.0055743917 -0.036637463 -0.035679977
-0.11179111 -0.10292971 -0.14583111 -0.034831204 -0.016332822 -0.014252594 -1.2556907e-06 -0.032675818
0.04039221 -0.022593925 -0.052206572 0.029616566 0.041877914 -0.054732 -0.076805964 -5.087554e-19
-4.0760723e-10 -0.09095249 0.009755871 0.07207918 -0.06492717 -0.1691279 0.024281006 -0.25009125
0.006735208 -0.001046103 -0.018835025 0.04114856 0.006235389 -0.062684245 -0.043587726 -0.0062771477
-0.055843066 -0.036945686 -0.027289553 -0.053492785 -0.0070601786 -0.062355455 -0.022942234 0.06218423
0.10438417 -0.046007074 -0.05085442 -0.053158663 -0.07160121 -0.10425248 0.032537047 -0.005073456
-0.09262681 0.051839836 -0.04435676 -0.0048853797 0.04038229 -0.00016710273 -0.027245501 -0.07559923
-0.015277908 0.08198364 -0.09866257 -0.017640846 -0.041203946 -0.056414112 0.008060632 -2.7655945e-28
0.010035344 0.016859537 -0.030030157 -0.010547981 -0.0014136976 -4.276101e-06 -0.0136870155 -0.09031147
-0.05215614 -0.024617411 -0.021157362 0.066793405 -0.042627055 -0.015977927 0.019085387 -0.0056141303
00000000: f847 ccbd 1948 ddbc 3b70 2abd 5aac 0dbd
00000010: 1bf5 4eba 6347 c2ba d06d 96bc 8570 f9bc
00000020: 3427 e03c 2862 34bd 7b48 d9bc 97ae c1bc
00000030: 8d26 09be b6c7 a3b3 dbd2 823c d40b 9fb8
00000040: 8299 9ebd d2bf 46a6 3a44 21bc 7e6c 7dbd
00000050: a989 91bd ee76 80bd 5276 8fbc 129b d5b7
00000060: d1a0 e6bc ddb2 25be 1102 763d 521b 83bc
00000070: ab19 1bbd d6a8 e6bd b3c6 11bd ca99 ccbd
00000080: bc4d b2bd f888 bebc f893 aabc 187d fabc
00000090: cf73 91bd 2d32 888d abf9 f5bd f461 31b7
000000a0: 9354 06bb b178 b9bd 2016 bfb8 0828 7fbe
000000b0: d91e 9cbe 63a9 b63b 2a11 16bd 2b25 12bd
000000c0: bdf2 e4bd d0cc d2bd c054 15be 2aab 0ebd
000000d0: 69cc 85bc b683 69bc 3489 a8b5 14d7 05bd
000000e0: 4d72 253d e516 b9bc 8fd6 55bd 719e f23c
000000f0: 2d88 2b3d a92e 60bd 724c 9dbd 7928 16a1
00000100: 9e15 e0af 4d45 babd 17d7 1f3c 409e 933d
00000110: 89f8 84bd dd2f 2dbe f6e8 c63c f60b 80be
00000120: 05b3 dc3b 641d 89ba e94b 9abc 648b 283d
00000130: 3c52 cc3b 9960 80bd 0b89 32bd 88b0 cdbb
00000140: b3bb 64bd 5c54 17bd 578e dfbc 401b 5bbd
00000150: 1259 e7bb 6f68 7fbd 5af1 bbbc e4b4 7e3d
00000160: 5ec7 d53d ea71 3cbd b94c 50bd e6bc 59bd
00000170: a8a3 92bd 5382 d5bd 9145 053d 3c3f a6bb
00000180: 20b3 bdbd 0256 543d 6faf 35bd 8915 a0bb
00000190: e667 253d 4c38 2fb9 f531 dfbc c5d3 9abd
000001a0: 3150 7abc 0ae7 a73d 9a0f cabd 8983 90bc
000001b0: 78c5 28bd 7c12 67bd be10 043c 564a af91
000001c0: 496b 243c 031d 8a3c ce01 f6bc 70d1 2cbc
000001d0: d24b b9ba 6e7b 8fb6 813f 60bc 38f5 b8bd
000001e0: ada1 55bd 74aa c9bc 3452 adbc fbca 883d
000001f0: b599 2ebd 24e4 82bc f558 9c3c bdf6 b7bb

lstm.weight_ih_l0 f4 [256, 128]
-3.346843e-05 7.0331596e-05 9.135421e-08 2.48376e-05 1.316077e-29 4.4862268e-38 -0.0003311978 -9.167298e-05
-7.661121e-06 2.1461383e-05 -2.466731e-12 4.2448436e-38 0.0001413433 -7.768728e-38 0.000116198964 6.2704934e-38
-0.000103061946 2.91498e-38 5.58204e-38 2.6662728e-05 -9.827297e-05 0.00014921455 -2.10379e-05 -1.8383556e-38
-4.0676154e-05 4.1302177e-05 1.7555067e-07 -3.221391e-08 -1.5800206e-38 -0.00016225645 -0.00024359199 -2.9636023e-05
9.2873735e-05 0.00012883305 -3.9034887e-05 -1.1275857e-19 7.309424e-05 2.2371315e-38 0.00027114895 5.6483326e-38
-6.370527e-38 -5.5111548e-05 -1.1711355e-37 0.000203234 8.545481e-05 -8.2308565e-05 -6.575318e-05 -0.00010818204
-0.0002369067 -0.0001232705 0.00019416265 -4.7761387e-05 -0.00020836342 -8.1144374e-38 9.374755e-38 -6.357851e-05
-0.00014049205 -5.2706404e-26 0.00012571791 -3.932602e-05 -6.642388e-05 0.00028397574 -0.00017987197 -1.6634575e-37
-4.5008574e-38 -1.518691e-05 2.2805012e-05 -0.00011847614 6.3259424e-05 0.00031534268 -9.8705714e-05 0.00010266835
0.00048387796 -4.164294e-38 4.8045255e-38 0.00020294619 8.0825484e-05 2.8300215e-05 4.201511e-05 -5.4052555e-38
0.00015960127 2.0883411e-38 -9.34205e-22 -3.3460048e-38 -4.2351632e-05 -6.1076425e-05 -0.00014609622 -1.1476077e-05
-0.00012599942 2.0005991e-05 -7.457792e-07 -0.00010805413 0.00011017865 4.7839432e-05 0.00012217453 -1.0548489e-31
-3.8348953e-06 -0.00013322974 0.00014995396 1.0745575e-37 8.02311e-06 8.6472043e-38 0.00011456745 4.74307e-05
6.743175e-38 -2.7211288e-05 7.9430545e-05 -2.4861896e-12 0.00014190633 2.9271676e-18 -4.7603626e-05 -2.8093875e-37
-2.1113738e-05 0.00012345993 3.4927125e-06 1.9365922e-38 -6.055685e-06 5.198748e-38 6.9859445e-05 -0.00024155974
8.5713486e-07 1.886277e-39 0.00012829827 -7.5876975e-05 -0.00014424868 3.4450205e-38 0.00023673558 2.079027e-39
-0.010256904 -0.014544535 -2.3983506e-05 -0.00911358 2.0720596e-26 4.515977e-39 -0.020249793 -0.009898917
-0.004584185 -0.009902465 2.93648e-14 -1.792825e-39 -0.019884503 4.481232e-39 -0.004227703 1.558193e-39
-0.007397126 1.2737334e-37 4.23998e-40 -0.005158507 -0.008998978 -0.0068805944 -0.017865365 -1.902861e-39
-0.010296142 -0.021870356 -0.012015053 0.0024250732 1.836556e-39 -0.02103846 -0.01347438 -0.008654905
-0.009442445 -0.011348319 0.0029155987 9.536116e-16 -0.013585215 -4.73502e-40 -0.0039623026 4.80274e-40
6.15919e-39 -0.0022802404 -2.35356e-40 -0.0030861814 -0.017000636 -0.00043453596 -0.007496624 -0.010427747
-0.01613101 -0.014271244 -0.018186338 -0.0009450567 -0.012777702 3.53796e-40 1.318353e-39 -0.0071455506
-0.00735372 6.717308e-24 -0.00958456 0.00029877853 0.0011782601 -0.0059883846 -0.009426326 9.65053e-40
3.311819e-39 -0.013051493 -0.013672118 -0.024436435 -0.008152276 -0.010741652 -0.012300345 -0.0037951453
-0.0044724215 2.785532e-39 2.933167e-39 -0.0060749194 -0.003058188 -0.0035645491 -0.0054004113 5.20857e-40
-0.009311682 -2.710369e-39 3.8578538e-19 -2.480577e-39 -0.00951554 -0.010565015 -0.008938924 -0.008874336
-0.010126985 -0.010403014 -2.4963136e-05 -0.0037323174 -0.013729388 -0.0066138688 -0.009136392 1.7807344e-29
-0.016874202 -0.010818891 -0.016376575 -2.114063e-39 -0.0002208566 5.079459e-39 -0.0072300145 -0.0046990323
2.931641e-39 -0.010266887 0.00038790994 -3.9387985e-05 -0.008603403 -3.682135e-17 -0.008965973 -4.324357e-39
-0.011499938 -0.010435712 -0.00018628385 6.869992e-39 -0.003521608 -4.57568e-39 -0.006007451 -0.0125682885
-0.00046178326 2.25181e-39 -0.010303664 -0.012032151 -0.0073529175 -4.772999e-39 -0.013691297 5.63024e-40
00000000: 7460 0cb8 fd7e 9338 822e c433 575a d037
00000010: 5077 850f e040 7401 9ea4 adb9 8e40 c0b8
00000020: 4488 00b7 f807 b437 ad94 2dac 7c1c 6701
00000030: 8e35 1439 227c d381 d8af f338 f6b2 aa01
00000040: f622 d8b8 e4b4 1e01 24f5 9701 c6a9 df37
00000050: e617 ceb8 7a76 1c39 8c7a b0b7 e02d c880
00000060: b09b 2ab8 e03b 2d38 007f 3c34 925b 0ab3
00000070: 8c0c ac80 6223 2ab9 ba6c 7fb9 e09a f8b7
00000080: 35c5 c238 5c17 0739 64b9 23b8 301f 05a0
00000090: 2c4a 9938 209a f300 ff28 8e39 22c3 9901
000000a0: 186c ad81 9327 67b8 1e68 1f82 361b 5539
000000b0: 3436 b338 139d acb8 f8e4 89b8 cadf e2b8
000000c0: 286a 78b9 2c42 01b9 2498 4b39 6653 48b8
000000d0: 217c 5ab9 60e5 dc81 8234 ff01 7455 85b8
000000e0: 0c51 13b9 a77e 8295 25d3 0339 fef1 24b8
000000f0: 0d4d 8bb8 94e2 9439 049c 3cb9 096b 6282
00000100: cc0c 7581 48cb 7eb7 644d bf37 6576 f8b8
00000110: 25aa 8438 9454 a539 3a00 cfb8 a74f d738
00000120: 00b1 fd39 cab9 6281 a8ca 8201 f4cd 5439
00000130: da80 a938 4066 ed37 6139 3038 2225 9381
00000140: a45a 2739 7466 e300 4e2c 8d9c 802c 3681
00000150: b8a2 31b8 2816 80b8 6831 19b9 6089 40b7
00000160: b61e 04b9 8ad2 a737 8e31 48b5 1f9b e2b8
00000170: b60f e738 33a7 4838 fa1b 0039 5eed 088c
00000180: 80ad 80b6 96b3 0bb9 f63c 1d39 dd42 1202
00000190: ff9a 0637 3866 eb01 ee43 f038 54f0 4638
000001a0: 1291 b701 cc43 e4b7 f393 a638 36f3 2eac
000001b0: b1cc 1439 a2fc 5722 01aa 47b8 6f32 bf82
000001c0: 681d b1b7 0675 0139 5864 6a36 50e0 d200
000001d0: f031 cbb6 fc85 8d01 8181 9238 334b 7db9
000001e0: dc15 6635 2c8a 1400 ce87 0639 2420 9fb8
000001f0: 7641 17b9 9490 3b01 393c 7839 7ba3 1600
00000200: 930c 28bc 344c 6ebc 3030 c9b7 2051 15bc
00000210: f434 cd14 b52c 3100 e5e2 a5bc 112f 22bc
00000220: ee36 96bb f33d 22bc 4f3f 0429 ab85 1380
00000230: d3e4 a2bc dacb 3000 8b88 8abb 9cf7 1000
00000240: 9763 f2bb 225f 2d02 ef9d 0400 b108 a9bb
00000250: 7370 13bc 9c76 e1bb 635a 92bc 67b8 1480
00000260: 26b1 28bc 7629 b3bc c9da 44bc faed 1e3b
00000270: 92ff 1300 d958 acbc a5c3 5cbc 4dcd 0dbc
00000280: 7cb4 1abc 4dee 39bc a113 3f3b 0f6e 8926
00000290: 8694 5ebc ee27 0580 34d6 81bb cf3a 0500
000002a0: 5111 4300 1670 15bb 1490 0280 8841 4abb
000002b0: eb44 8bbc 6ed2 e3b9 3da6 f5bb 24d9 2abc
000002c0: 2e25 84bc f0d1 69bc 84fb 94bc aebd 77ba
000002d0: 9159 51bc 3dda 0300 085b 0e00 3925 eabb
000002e0: 79f7 f0bb 80ee 0119 8f08 1dbc 60a5 9c39
000002f0: d96f 9a3a 363a c4bb e070 1abc 2d82 0a00
00000300: 0110 2400 eed5 55bc 0501 60bc eb2e c8bc
00000310: 2091 05bc c1fd 2fbc 6387 49bc f9b7 78bb
00000320: 648d 92bb ee54 1e00 7af0 1f00 1e10 c7bb
00000330: e16b 48bb 369b 69bb eff5 b0bb f0ab 0500
00000340: 0690 18bc 6883 1d80 3dba e320 d702 1b80
00000350: 11e7 1bbc e218 2dbc 9174 12bc aa65 11bc
00000360: a7eb 25bc 6771 2abc ed67 d1b7 e599 74bb
00000370: 3af1 60bc 27b9 d8bb ceb0 15bc 8296 b40f
00000380: c43b 8abc b841 31bc 2b28 86bc 2605 1780
00000390: be95 67b9 774f 3700 c2e9 ecbb 57fa 99bb
000003a0: 39ec 1f00 7236 28bc 6460 cb39 8734 25b8
000003b0: 4af5 0cbc face 29a4 04e6 12bc 8c16 2f80
000003c0: 3c6a 3cbc 8cfa 2abc 3155 43b9 bece 4a00
000003d0: c7ca 66bb 22d3 3180 27da c4bb 39eb 4dbc
000003e0: 801b f2b9 2185 1800 b3d0 28bc 8022 45bc
000003f0: bef0 f0bb 2ef9 3380 7651 60bc 7b21 0600

lstm.weight_hh_l0 f4 [256, 64]
6.906587e-39 -6.35977e-40 5.773686e-39 -3.947336e-39 -4.062639e-39 -3.526771e-39 -4.16888e-40 -1.59821e-40
4.844315e-39 2.699194e-39 6.181461e-39 3.208623e-39 -6.499365e-39 1.835607e-39 2.48088e-39 -4.22571e-39
1.6492258e-37 2.73326e-40 -1.595722e-39 -3.57044e-39 6.3779724e-38 4.722778e-39 1.746307e-39 -5.1013105e-38
-4.65686e-39 2.4902e-41 -3.11387e-40 -5.832556e-39 -1.03555e-39 6.554435e-39 5.317154e-39 -3.146795e-39
3.94136e-39 -4.874415e-39 -2.066736e-39 4.703231e-38 2.473715e-39 1.400672e-39 5.003625e-39 -5.96283e-40
-3.926897e-39 -3.018503e-39 4.139808e-39 -1.858242e-39 -1.183817e-39 5.714677e-39 4.01255e-40 4.08472e-39
-5.174297e-39 3.839073e-39 -4.9118e-39 9.86168e-40 -5.9543e-39 -2.799552e-39 -5.38693e-40 -2.12912e-39
6.769631e-39 -3.886609e-39 -5.319337e-39 -6.000762e-39 4.766e-40 4.800952e-39 -1.600794e-39 -6.748155e-39
-2.403162e-39 -6.57757e-40 -5.984298e-39 5.101957e-39 3.42842e-40 5.888951e-39 -3.97544e-40 4.895068e-39
-7.7701e-40 8.174024e-38 -3.196428e-39 -3.5333595e-38 2.80078e-39 -6.764171e-39 -4.471782e-39 -6.717992e-39
-6.939299e-39 9.09565e-40 -6.157569e-38 3.590509e-39 -3.135763e-39 -8.37209e-40 1.165192e-39 -5.396941e-39
-2.153742e-39 -5.914112e-39 6.268853e-39 -6.768997e-39 -1.7018871e-38 3.590003e-39 1.789978e-39 -5.152824e-39
-2.62665e-39 -1.62803e-39 -5.889391e-39 5.702717e-39 1.141971e-39 3.05082e-40 -3.728323e-39 -5.433896e-39
2.752876e-39 -1.473521e-39 6.632054e-39 -4.500218e-39 -6.131536e-39 -6.812086e-39 4.960965e-39 3.231718e-39
3.859574e-39 -2.164163e-39 -1.55328e-40 7.36168e-40 -3.156847e-39 -4.60551e-39 -3.4183073e-38 -3.88021e-40
4.300207e-39 4.54008e-39 1.67488e-39 -1.743606e-39 -5.130273e-39 3.626614e-39 1.241396e-39 1.579071e-39
-3.505029e-39 -4.631803e-39 -6.74373e-39 2.762902e-39 -1.193639e-39 -3.115639e-39 -5.75034e-40 -3.2494082e-38
5.954753e-39 -3.782211e-39 -3.085707e-39 -3.912683e-39 5.611441e-39 5.84867e-40 3.855621e-39 6.041797e-38
1.67531e-39 -3.628636e-39 -6.31668e-40 5.264433e-39 2.491949e-39 -4.604398e-39 -3.25273e-39 -5.652622e-39
5.602328e-39 -3.3747953e-38 -4.706405e-39 2.942633e-39 -6.201764e-39 -2.9668e-41 1.723918e-39 3.653869e-39
-6.217476e-39 2.386899e-39 3.158492e-39 3.653942e-39 4.816594e-39 -4.064426e-39 -4.697751e-39 5.370661e-39
-1.2855282e-37 -5.17987e-39 -4.279488e-39 2.841348e-39 3.606784e-39 -2.997135e-39 -3.004022e-39 -7.02142e-40
1.372814e-39 -1.08599e-40 -3.033228e-39 -8.93965e-40 5.593628e-39 3.638535e-39 -6.122078e-39 7.01924e-39
-1.978304e-39 -1.640122e-39 -4.31899e-39 1.487703e-39 -3.263225e-39 5.9812637e-38 -5.058895e-39 -5.532017e-39
1.84543e-39 -4.957626e-39 -1.030938e-39 -1.521636e-39 -4.331932e-39 7.014664e-38 -4.968667e-39 6.053252e-39
-2.927373e-39 3.527556e-39 -3.47687e-39 -4.94157e-40 1.6392524e-37 -1.218419e-39 -2.506348e-39 -5.139355e-39
2.670653e-38 1.287519e-39 3.587695e-39 2.771213e-39 -5.280765e-39 4.04887e-39 4.56735e-39 3.475115e-39
-4.534085e-39 -3.753927e-39 -2.14666e-39 -6.597242e-39 -1.555315e-39 3.18235e-39 4.569822e-39 -6.177822e-39
-5.686888e-39 -1.713445e-39 -4.645226e-39 1.551619e-39 -1.908064e-39 -4.272584e-39 -1.298915e-39 4.279229e-39
-1.773566e-39 -3.07673e-39 4.9967e-39 1.1842e-40 -1.767891e-39 2.22104e-40 1.13174e-40 4.70654e-39
3.829366e-39 -8.45925e-40 1.225656e-39 -2.692329e-39 -1.27303e-39 2.707932e-39 -6.122465e-39 1.134172e-39
-5.091408e-39 7.07066e-40 5.2962e-39 -2.783759e-39 1.675481e-39 2.2205e-39 6.420277e-39 -3.788985e-39
00000000: c134 4b00 d8ec 0680 b0de 3e00 91fb 2a80
00000010: fc3c 2c80 3467 2680 1d8a 0480 84bd 0180
00000020: fbbf 3400 4164 1d00 664f 4300 56f0 2200
00000030: 96c5 4680 edfc 1300 af03 1b00 8f03 2e80
00000040: 227b 6002 ecf9 0200 3960 1180 efe0 2680
00000050: fb9f ad01 2f6d 3300 fe03 1300 f2de 8a81
00000060: 6eb5 3280 6b45 0000 0564 0380 cb82 3f80
00000070: b146 0b80 195f 4700 10e6 3900 fc43 2280
00000080: e8ea 2a00 e313 3580 3881 1680 bc08 8001
00000090: b6ef 1a00 8140 0f00 127c 3600 327e 0680
000000a0: 97c2 2a80 5cde 2080 1a14 2d00 063c 1480
000000b0: 00e4 0c80 323a 3e00 895e 0400 8a7a 2c00
000000c0: d657 3880 c6cd 2900 1a7c 3580 09bd 0a00
000000d0: 2ad6 4080 037c 1e80 a8dd 0580 1f2f 1780
000000e0: fab6 4900 4952 2a80 26ec 3980 af57 4180
000000f0: 9130 0500 1a47 3400 5d6e 1180 1c7b 4980
00000100: 0a2b 1a80 8f29 0780 ca29 4180 2e8e 3700
00000110: b4bb 0300 0020 4000 3154 0480 754d 3500
00000120: fd75 0880 a284 de01 57ce 2280 d85f 4081
00000130: 6f7f 1e00 c2a7 4980 82b1 3080 0727 4980
00000140: f18f 4b80 7fe7 0900 fe9f a781 e118 2700
00000150: 3b25 2280 cc1d 0980 15b0 0c00 7ac4 3a80
00000160: c273 1780 2366 4080 0343 4400 36b5 4980
00000170: b051 b980 7817 2700 bb7d 1300 fa1b 3880
00000180: 089a 1c80 49ba 1180 3a21 4080 db18 3e00
00000190: 5a6f 0c00 7252 0300 0c99 2880 7e2b 3b80
000001a0: e6f9 1d00 940b 1080 7837 4800 c700 3180
000001b0: 3ac4 4280 532d 4a80 2705 3600 b730 2300
000001c0: ec06 2a00 ce90 1780 feb0 0180 2304 0800
000001d0: 0160 2280 4a26 3280 401c 3a81 a539 0480
000001e0: 3ad3 2e00 e56f 3100 e23c 1200 77fc 1280
000001f0: 1ddd 3780 867d 2700 8284 0d00 cf31 1100
00000200: 982a 2680 956f 3280 c76e 4980 d915 1e00
00000210: 61ff 0c80 22ed 2180 f642 0680 24ea 3081
00000220: 6ed7 4000 442f 2980 b299 2180 f89a 2a80
00000230: 6a1a 3d00 5f5e 0600 e7fb 2900 2e79 a401
00000240: 153e 1200 2983 2780 d5e0 0680 1953 3900
00000250: 8a22 1b00 3023 3280 4a6b 2380 368d 3d80
00000260: 0301 3d00 c8bd 3781 8b3f 3380 dd0a 2000
00000270: ff87 4380 b452 0080 95c5 1200 80c9 2700
00000280: cbb3 4380 b4fd 1900 9764 2200 b4c9 2700
00000290: b472 3400 f741 2c80 6b27 3380 387b 3a00
000002a0: 1ffa 2e82 5f67 3880 7999 2e80 86f0 1e00
000002b0: 3f46 2700 cba2 2080 feb5 2080 49a5 0780
000002c0: d9f2 0e00 bb2e 0180 6807 2180 03bc 0980
000002d0: c2e8 3c00 c19e 2700 dda9 4280 c96e 4c00
000002e0: b58a 1580 fedb 1180 9607 2f80 1c33 1000
000002f0: 8b88 2380 53d3 a201 2416 3780 033d 3c80
00000300: 4f18 1400 d8fb 3580 d639 0b80 b491 1080
00000310: aa2b 2f80 13f5 be01 9f1a 3680 01ea 4100
00000320: 53e0 1f80 6469 2600 19dc 2580 8261 0580
00000330: 9c1f 5f02 7544 0d80 ae4a 1b80 6ef6 3780
00000340: 7867 1101 1405 0e00 0911 2700 042d 1e00
00000350: a080 3980 9a16 2c00 eabb 3100 35d7 2500
00000360: 2f5f 3180 6ce0 2880 0460 1780 6dd6 4780
00000370: 96ef 1080 19a7 2200 cec2 3100 4145 4380
00000380: bbec 3d80 63a8 1280 0095 3280 48e5 1000
00000390: e8c6 1480 3a86 2e80 d924 0e80 c098 2e00
000003a0: fb4f 1380 ac80 2180 c468 3600 1b4a 0100
000003b0: 2940 1380 236b 0200 7c3b 0100 eb3f 3300
000003c0: b7b2 2900 1836 0980 a158 0d00 1e51 1d80
000003d0: b1dc 0d80 9d7c 1d00 f1aa 4280 9c59 0c00
000003e0: c670 3780 03b3 0700 a7ab 3900 fd4f 1e80
000003f0: 8f3e 1200 da2d 1800 1fe9 4500 2642 2980

lstm.bias_ih_l0 f4 [256]
-0.0017782253 0.10950407 0.64107925 0.12590154 0.13439405 0.047337726 0.221265 -0.0068478608
-0.007600464 0.6173743 0.037903316 -0.011874776 -0.007857766 0.30495828 0.08074504 -0.0048262724
-0.007363997 0.016378598 0.009872533 0.16865455 -0.00093018886 0.5299802 0.085393876 -0.032899506
-0.011175275 0.07611148 -0.012524659 -0.0065643922 -0.021337206 0.2599837 0.013689278 0.50198406
-0.01037752 0.065136224 -0.0014242526 -0.023443652 -0.008920913 -0.008055481 0.5046231 -0.01974966
0.18947957 -0.0075780456 -0.0028753504 -0.007062609 -0.0034658953 0.051520728 -0.0009760416 0.079257645
-0.02149082 0.25959352 -0.0029910658 0.59870124 -0.01623648 0.12446048 -0.008174077 0.09664077
0.3084681 -0.005379581 0.061391193 0.37823766 -0.013367562 0.54259294 0.19814244 0.5629887
-2.20185e-40 -3.820488e-39 6.476297e-39 -5.322657e-39 2.462666e-39 5.41941e-40 3.84186e-39 4.0727283e-38
6.250038e-39 -6.256906e-39 1.114553e-37 -3.5905033e-38 -2.168225e-39 -3.914543e-39 -4.30185e-40 -5.773556e-39
-6.5652e-39 5.813117e-39 -5.622207e-39 5.701771e-39 6.815886e-39 1.979449e-39 -6.005833e-39 -4.926454e-39
1.497033e-38 4.66003e-40 -9.982354e-38 8.8732e-40 4.908199e-39 -4.224102e-39 5.377965e-39 7.75263e-40
4.134216e-39 1.683233e-39 6.464368e-39 -6.083185e-39 1.077988e-39 5.893748e-39 2.48714e-40 -3.467325e-39
1.996492e-39 6.387483e-39 5.094967e-39 -4.552313e-39 1.909727e-39 -1.615099e-39 -1.790516e-39 -5.570652e-39
6.534862e-39 4.78684e-40 1.103221e-39 1.436586e-39 6.445688e-39 -2.652951e-39 -4.43723e-39 -1.629312e-39
-2.675219e-39 6.503603e-39 1.9719e-39 5.488942e-39 -1.592279e-39 -1.756769e-39 -5.416355e-39 -6.602307e-39
0.00087973534 -0.016852798 0.013062408 -0.0069458215 0.020918151 -0.009572834 -0.053376228 0.019684153
-0.005599562 -0.03774672 -0.004000278 -0.007709245 0.0034369985 0.002395733 0.033723768 -0.002109324
-0.012167647 -0.02340464 0.0018254123 -0.033165943 -0.04820096 0.0026491387 0.038294233 0.043315694
0.010883151 0.009397632 0.00066845433 -0.0034514328 -0.039520163 -0.043524653 -0.015504094 -0.05064874
0.0038854661 0.0024157416 0.023928 0.029070491 -0.020136334 0.058913253 0.058872353 0.024313552
0.014070446 0.007424169 0.0031435771 0.0014679756 -0.0022998834 0.015445481 0.0011333599 -0.025752228
0.048910245 -0.020533338 -0.039367296 -0.050780177 -0.011238851 0.01929199 -0.008659331 0.006350152
-0.023256257 -0.0054744417 0.023665216 0.04540142 0.03056606 0.04088664 -0.045774426 0.06969951
-0.0017784189 0.109512135 0.641047 0.12579772 0.13442864 0.04806749 0.22145328 -0.006850664
-0.0076022684 0.6166244 0.037979506 -0.011877257 -0.007857819 0.3048909 0.08073195 -0.004827196
-0.0073632286 0.01640673 0.010021913 0.17529522 -0.00091818115 0.529807 0.08945407 -0.03291342
-0.011170311 0.076088086 -0.012527464 -0.006564891 -0.02136202 0.25988254 0.013903706 0.5019362
-0.010378339 0.065157786 -0.0014245093 -0.023441099 -0.008940238 -0.008057003 0.50467783 -0.0197165
0.18943952 -0.0075835073 -0.0028759292 -0.007063684 -0.0034664446 0.051462833 -0.0009761328 0.08011227
-0.021588145 0.25962704 -0.002991203 0.598888 -0.016242899 0.1244972 -0.008179396 0.097008415
0.30840808 -0.005332953 0.061213452 0.37774527 -0.013370661 0.5423261 0.19789326 0.56294096
00000000: 5713 e9ba ab43 e03d c51d 243f 55ec 003e
00000010: 989e 093e 34e5 413d 4b93 623e 0564 e0bb
00000020: 500d f9bb 3e0c 1e3f 8240 1b3d 6c8e 42bc
00000030: dcbd 00bc 7e23 9c3e a85d a53d b525 9ebb
00000040: af4d f1bb 692c 863c 68c0 213c c7b3 2c3e
00000050: ebd7 73ba c8ac 073f fce2 ae3d a2c1 06bd
00000060: 8018 37bc 56e0 9b3d 3a34 4dbc 1d1a d7bb
00000070: 5dcb aebc 951c 853e fe48 603c 0782 003f
00000080: 7906 2abc 2466 853d fdad baba e70c c0bc
00000090: 0529 12bc 23fb 03bc fb2e 013f 0aca a1bc
000000a0: ef06 423e 4151 f8bb 6070 3cbb 756d e7bb
000000b0: 1324 63bb 6607 533d 0bdd 7fba d551 a23d
000000c0: 840d b0bc 71e9 843e c205 44bb 7c44 193f
000000d0: 5e02 85bc 23e5 fe3d 90ec 05bc 99eb c53d
000000e0: 88ef 9d3e 3247 b0bb 5575 7b3d 5ea8 c13e
000000f0: 9e03 5bbc 5fe7 0a3f dae5 4a3e 0720 103f
00000100: c965 0280 f799 2980 4885 4600 67f5 3980
00000110: e9d0 1a00 b6e6 0500 8bd5 2900 8cbd 5d01
00000120: 900e 4400 b521 4480 81b4 1702 507c 4381
00000130: 219c 1780 27a0 2a80 2eaf 0480 53de 3e80
00000140: 1b7d 4780 9b4c 3f00 6d38 3d80 3816 3e00
00000150: eb37 4a00 e68d 1500 d265 4180 f3a4 3580
00000160: 3003 a300 0713 0500 6ddf 0782 7da9 0900
00000170: 1072 3500 14ff 2d80 948f 3a00 1e71 0800
00000180: 8304 2d00 2b54 1200 0764 4600 723d 4280
00000190: febc 0b00 5f2d 4000 50b5 0200 7ec1 2580
000001a0: 68bd 1500 b48d 4500 b27a 3700 ff91 3180
000001b0: 8bcb 1400 3d96 1180 3b7f 1380 b6a8 3c80
000001c0: 8928 4700 6036 0500 5503 0c00 9ea4 0f00
000001d0: f52f 4600 59e3 1c80 3151 3080 dcbd 1180
000001e0: 6c21 1d80 66d1 4600 db78 1500 f0c4 3b00
000001f0: a056 1180 2821 1380 98fa 3a80 8ce4 4780
00000200: 0a9e 663a e10e 8abc b603 563c c699 e3bb
00000210: 8b5c ab3c 60d7 1cbc 08a1 5abd a940 a13c
00000220: 887c b7bb 4e9c 1abd c414 83bb d69d fcbb
00000230: 443f 613b bb01 1d3b ef21 0a3d 963c 0abb
00000240: cf5a 47bc 16bb bfbc ac42 ef3a 03d9 07bd
00000250: 5f6e 45bd 2c9d 2d3b 6ada 1c3d cc6b 313d
00000260: 3e4f 323c 87f8 193c 363b 2f3a 6f31 62bb
00000270: e5df 21bd e846 32bd e204 7ebc 0e75 4fbd
00000280: 4ea3 7e3b 6b51 1e3b a704 c43c 3d25 ee3c
00000290: f4f4 a4bc 064f 713d 2324 713d 372d c73c
000002a0: ba87 663c 7246 f33b 7904 4e3b 1669 c03a
000002b0: a4b9 16bb 0b0f 7d3c 3f8d 943a 56f6 d2bc
000002c0: 1c56 483d 8835 a8bc 9a3f 21bd e0fe 4fbd
000002d0: 2823 38bc 3c0a 9e3c dedf 0dbc f014 d03b
000002e0: e883 bebc f262 b3bb 8edd c13c d7f6 393d
000002f0: ad65 fa3c c078 273d f77d 3bbd 9ebe 8e3d
00000300: d619 e9ba e647 e03d a81b 243f 1ed1 003e
00000310: a9a7 093e 6be2 443d a6c4 623e 897b e0bb
00000320: 731c f9bb 19db 1d3f 6690 1b3d d498 42bc
00000330: 15be 00bc a91a 9c3e cb56 a53d 742d 9ebb
00000340: 3d47 f1bb 6867 863c f332 243c 9780 333e
00000350: 18b2 70ba 6ea1 073f b233 b73d 39d0 06bd
00000360: ae03 37bc 12d4 9b3d fe3f 4dbc 4c1e d7bb
00000370: 67ff aebc 530f 853e 5fcc 633c e47e 003f
00000380: e909 2abc 7271 853d 9ab6 baba 8c07 c0bc
00000390: 137a 12bc 8501 04bc 9132 013f 7f84 a1bc
000003a0: 6ffc 413e 127f f8bb 167a 3cbb 7a76 e7bb
000003b0: 4a2d 63bb b1ca 523d 2ae3 7fba e711 a43d
000003c0: 9fd9 b0bc d6ed 843e 0f08 44bb b950 193f
000003d0: d40f 85bc 63f8 fe3d e002 06bc 59ac c63d
000003e0: aae7 9d3e 0dc0 aebb f5ba 7a3d d467 c13e
000003f0: 9e10 5bbc e2d5 0a3f 88a4 4a3e e61c 103f
